classifier/auto.pth (torch_old, 5815 bytes, 6 tensors)

conv.weight f4 [6, 1, 3, 3]
000000 38 ab b7 be dd 64 74 40 e6 40 7b 40 e5 a7 e0 40
       -0.35872817 3.8186562 3.925836 7.020495
000010 28 7e a1 40 43 36 4e bf 3f 27 ed 3e 11 dd 33 40
       5.04665 -0.80551547 0.46319005 2.8103678
000020 54 c7 fb bf ed 3b c3 40 ed a3 57 c0 9c 71 02 41
       -1.9670205 6.101065 -3.3693802 8.152737
000030 ec 9c 21 41 02 17 a4 40 d7 87 c0 3f 0b 95 b9 3f
       10.100811 5.1278086 1.5041455 1.4498609
000040 b7 3b 7a 3d df 0d ac c0 5c 25 a6 bf 0a 45 79 40
       0.061092105 -5.3766932 -1.2980151 3.8948388
000050 30 e2 70 bd ba ae d5 40 1c 61 b1 3e 3c e6 58 3f
       -0.05880946 6.677579 0.346444 0.8472631
000060 da a2 c2 40 ec 08 f5 bf 80 0d 04 c0 40 7b e3 bc
       6.0823793 -1.9143348 -2.063324 -0.027768731
000070 de af 63 be 98 9e 5e bd b3 d6 29 be b9 bc 8e 3e
       -0.22235057 -0.054350466 -0.16585808 0.2787836
000080 70 56 31 be bb 8e 14 be 23 27 4d be 02 30 a3 be
       -0.1731813 -0.14507572 -0.2003446 -0.31872565
000090 14 16 fe 3f b2 4f 93 40 e1 56 60 40 f1 83 5a c0
       1.9850488 4.6034784 3.5053027 -3.414303
0000a0 04 42 98 40 ee 24 1a 40 7f 5f 96 c0 f7 fe 42 bf
       4.7580585 2.408504 -4.699157 -0.76170295
0000b0 86 08 5f 40 fd 73 b9 c0 19 9e 9e 40 18 b5 8d 40
       3.4848952 -5.7954087 4.956799 4.428356
0000c0 f3 01 8f 40 09 be f5 3f 4e c7 ab 40 19 75 13 40
       4.468988 1.9198619 5.368079 2.304022
0000d0 40 06 77 40 2a 27 11 c0
       3.8597565 -2.2680154

conv.bias f4 [6]
000000 2c f0 11 c0 a6 f9 03 3f ff 1a 6d 3d 5b f4 9a be
       -2.280284 0.5155281 0.057887074 -0.30264553
000010 5d b6 94 3e 07 9c 04 40
       0.29045382 2.0720232

encoder.0.weight f4 [4, 270]
000000 4d d0 24 40 4b 30 68 40 8e d9 52 40 e5 ad 8d 40
       2.5752137 3.6279476 3.2945285 4.4274774
000010 a6 97 05 3f 64 a4 c4 3e 15 42 88 3e b8 14 8b 3e
       0.5218452 0.3840667 0.26612917 0.27164245
000020 68 74 db bb 63 ef a4 3d de 7f 1c 3d a0 4d d8 3d
       -0.0066972263 0.08053472 0.03820788 0.10561681
000030 87 f0 70 3e 0c 8c 44 3e c4 30 dd 3e 4b e3 4b c0
       0.23529254 0.19194049 0.43201268 -3.1857479
000040 3c e8 9a bf 81 99 47 40 60 a0 3c 40 6e d3 c0 bf
       -1.2102122 3.1187441 2.9472885 -1.5064523
000050 f2 8f c0 3e d7 0a f0 3d 84 41 57 3e 14 93 42 3e
       0.37609822 0.117208175 0.21021086 0.19001418
000060 5c b7 4f 3e 3b d8 0b 3e a5 15 d7 3d f2 c8 11 3e
       0.2028479 0.13656704 0.10502175 0.14236811
000070 89 6d d9 3d 1e 3a dd 3d 6c 68 4f bd ce 6e 97 40
       0.10616595 0.108021006 -0.050636694 4.732276
000080 c0 e3 86 3f 15 59 3e 3c 97 1a cf 3e 08 1d a1 3e
       1.0538254 0.0116179185 0.40449974 0.31467462
000090 b5 fe 41 3e 8d 08 41 3e d6 87 3c 3e f2 34 22 3e
       0.1894482 0.18850918 0.18411192 0.1584051
0000a0 3c 56 48 3e eb 4e 15 3e 69 20 4b 3e 2e 06 10 3e
       0.19564146 0.14580886 0.19836582 0.14064857
0000b0 a3 94 39 3e 14 5f a6 c0 fe e4 ce 40 7e 12 73 40
       0.18123107 -5.199106 6.465453 3.7980037
0000c0 58 ee 43 3e 31 dd 73 3e 2a bb af 3e c5 44 a8 3e
       0.1913389 0.23814847 0.34322482 0.32864967
0000d0 06 c5 93 3e ba 4c b2 3e 9b da 95 3e 8f 29 b0 3e
       0.28861254 0.34824163 0.29268345 0.34406707
0000e0 45 55 7d 3e 65 d0 6c 3e 2b f8 6b 3e e2 9a a2 3e
       0.24739559 0.23126371 0.23043887 0.3175879
0000f0 72 49 98 c0 84 7b 2c c0 2f 34 7a 3f ae 8f b0 bd
       -4.7589655 -2.6950388 0.97735876 -0.08621155
000100 72 43 3f 3d a6 71 6b 3e 45 f6 b1 3e 7d 10 89 3e
       0.04669518 0.22992572 0.347582 0.26770392
000110 48 02 86 3e cc 7d a6 3e c1 38 8b 3e 6f 26 7f 3e
       0.26173615 0.3251785 0.27191737 0.24917005
000120 d4 8b aa 3e 60 88 70 3e 7e 36 a8 3e c6 a1 18 be
       0.33309805 0.23489523 0.32854074 -0.14905462
000130 89 c2 4e 3f 0e ff e1 3f 90 49 8f 3e f3 7c 9e 3e
       0.8076559 1.7655962 0.2798581 0.30954704
000140 4e 54 b3 3e e0 00 ae 3e e8 06 a4 3e d5 9b a1 3e
       0.35025257 0.33985043 0.3203652 0.31564203
000150 b4 a5 99 3e 7a 04 87 3e 62 54 85 3e d7 92 b1 3e
       0.30009234 0.26370603 0.2604094 0.34682342
000160 7c 3c 9e 3e 2d 76 72 3e e6 18 f6 c0 50 66 67 bf
       0.3090552 0.23677893 -7.6905394 -0.9039049
000170 d6 14 26 bf a9 9f 1f bf 4d e3 c2 bd a8 3f a6 3e
       -0.64875543 -0.62353 -0.095160104 0.3247044
000180 a1 f4 90 3e 20 04 85 3e 45 4e 81 3e 36 d4 61 3e
       0.28311637 0.2597971 0.25255027 0.22053608
000190 59 7a 73 3e b6 c2 88 3e b3 30 a9 3e 0f 8b 8b 3e
       0.2377714 0.26711053 0.33044967 0.2725453
0001a0 39 ad 70 3e 78 37 74 40 9c 1e fb 40 68 65 83 3f
       0.23503579 3.8158855 7.8474865 1.0265322
0001b0 48 a2 38 bf 8c cf 50 be c4 08 a5 3e c1 1c 93 3e
       -0.7212262 -0.20391673 0.3223325 0.28732875
0001c0 42 3e a3 3e f0 7a 88 3e 57 e7 9f 3e 19 cf 9e 3e
       0.31883436 0.26656294 0.31231186 0.31017378
0001d0 22 19 8f 3e eb 48 a7 3e 89 e5 82 3e 02 fb 85 3e
       0.27948862 0.3267282 0.25565746 0.26168066
0001e0 09 df 9f 3d e3 4f a4 3e d1 24 df 3e fe 2f 51 3e
       0.078062125 0.320922 0.43582776 0.20428464
0001f0 b5 29 58 3e 9c 0b 8a 3e c5 2b 6b 3e 69 c4 92 3e
       0.2110966 0.26961982 0.22965916 0.28665474
000200 9f 29 68 3e 53 b1 6a 3e 53 a0 6b 3e 35 3f 85 3e
       0.22672127 0.22919206 0.23010378 0.26024786
000210 8f 38 aa 3e d8 c5 7c 3e 87 e5 59 3e 80 9e a1 39
       0.33246276 0.24684846 0.21278964 0.00030826405
000220 80 9d 58 ba c0 10 38 bd b8 2f 2a bd 97 dc 47 bd
       -0.00082632154 -0.04493785 -0.041549414 -0.048794355
000230 20 cb 3d 3d 1e 88 71 3d b2 3f 42 bd 08 7a 19 3c
       0.046336293 0.058967702 -0.047424026 0.009367473
000240 0c 15 d3 bc 28 2a 12 bd 5a 11 18 bd 5b ee 54 bd
       -0.025766872 -0.035684735 -0.037125923 -0.051985126
000250 74 ff 26 3d 3c fd 1c bd c0 48 e6 3b 74 16 cc 3c
       0.040770963 -0.03832744 0.0070277154 0.02491305
000260 10 92 ec 3c 5c e5 05 3d 8f d4 70 bd 6f c7 2e bd
       0.028878242 0.032689437 -0.05879646 -0.042670663
000270 9c 31 59 bd 00 11 f1 b9 20 b9 41 3b 34 a3 5d 3d
       -0.053025827 -0.00045979768 0.0029559806 0.05411072
000280 a0 2c 16 bb ad 48 39 bd e0 b2 1a 3d c0 18 b7 3c
       -0.0022914782 -0.045235325 0.037768245 0.022350669
000290 e8 43 a7 bb 8e 98 0f bd ae f0 12 bd d8 1c 09 bd
       -0.0051045306 -0.035057597 -0.03587406 -0.033474773
0002a0 b0 91 6c bc 6e a3 cd bc 5c cd c2 3c b0 41 2d 3d
       -0.0144390315 -0.025102343 0.023779564 0.042298973
0002b0 40 a0 48 3b 9c 3f 70 bc 29 70 18 bd 12 d1 23 3d
       0.0030613095 -0.014663603 -0.03721634 0.039994307
0002c0 56 f5 49 bd 14 32 98 3c c0 e6 3a 3c 68 ec a2 bb
       -0.049306236 0.018578567 0.011407554 -0.0049720295
0002d0 b4 85 bb c0 fb dc e0 bf 12 34 41 40 82 36 84 3e
       -5.860071 -1.7567438 3.0188031 0.25822836
0002e0 72 58 73 3e 76 6e 95 3e 38 65 89 3e fa fd 62 3e
       0.23764208 0.29185838 0.26835036 0.22167197
0002f0 e9 01 8b 3e b5 e0 92 3e ed 54 8d 3e 6d a0 63 3e
       0.27149895 0.28687063 0.27603856 0.22229166
000300 35 3a 8e 3e b8 56 88 3e f0 79 5e 3e df e5 32 bf
       0.27778783 0.2662866 0.21726203 -0.69882005
000310 ec fb 45 c0 58 5a 01 3f 6e 41 cb 3f 30 7c 05 3e
       -3.093501 0.5052848 1.5879343 0.13035655
000320 c7 a8 90 3e 98 99 a4 3e 5c e1 85 3e b5 52 67 3e
       0.28253767 0.32148433 0.26148498 0.22590144
000330 31 88 a9 3e 9c 73 9c 3e 28 5b 9a 3e c4 0b 9a 3e
       0.33111718 0.30556953 0.30147672 0.300871
000340 f4 f4 8d 3e 2b 3a 9c 3e e0 c4 e4 be 41 ec bb 3f
       0.27725947 0.3051313 -0.44681454 1.4681474
000350 d0 bb 01 40 90 18 7b 3e 36 13 92 3e 60 15 a8 3e
       2.0270882 0.24521089 0.28530282 0.32828808
000360 9b 0a 9a 3e 56 8e 61 3e b3 e4 87 3e 9d 6a 9b 3e
       0.30086216 0.22026953 0.2654167 0.30354777
000370 40 cb 94 3e a2 20 62 3e f3 62 97 3e a5 ef 8c 3e
       0.29061317 0.22082761 0.2956768 0.27526584
000380 ea 44 92 3e 02 04 51 40 d0 62 0c 41 07 ed 08 40
       0.28568202 3.2658696 8.774124 2.139467
000390 d8 0c ba 3f 7e e0 df 3e 7d 10 d8 3e dd 0a d5 3e
       1.453517 0.4372596 0.4220008 0.4160985
0003a0 e4 52 47 3f 4c d8 e4 3d f8 97 01 be db ab 1a bf
       0.77860856 0.11174068 -0.12655628 -0.6041848
0003b0 c4 db 11 3f cc ce 04 3e 3b cc b9 3c 96 d8 e3 3d
       0.5697596 0.12969512 0.022680392 0.11125295
0003c0 63 00 ce 40 ae 28 b9 3e d2 74 a4 be 14 03 c1 bd
       6.437547 0.3616385 -0.32120377 -0.09424415
0003d0 b1 10 b2 3e 8d 99 90 3e df 49 16 3e 6b e4 a3 3d
       0.3477836 0.2824215 0.14676617 0.08002552
0003e0 a5 02 cf 3d 55 4b 26 3e 52 37 ef 3d 82 06 1c 3e
       0.10107926 0.16239674 0.116804734 0.15236858
0003f0 ca 49 24 3e 50 10 13 3e 5c 8f b7 3d 6f d3 40 3f
       0.16043773 0.14361691 0.089628905 0.7532262

encoder.0.bias f4 [4]
000000 bd 1b 7e 3e 5a 2e 9b 3c fa 06 ad 3e 63 cc 9b 3e
       0.24815269 0.018943 0.33794385 0.30429372

encoder.2.weight f4 [2, 4]
000000 46 88 50 bf df 37 85 3f da c0 94 be a5 3f 42 bf
       -0.81457937 1.0407676 -0.29053384 -0.75878364
000010 46 88 50 3f e0 37 85 bf cf c0 94 3e a6 3f 42 3f
       0.81457937 -1.0407677 0.2905335 0.7587837

encoder.2.bias f4 [2]
000000 1a 93 4a 3f 95 b3 55 3e
       0.7913071 0.20869286
